…
(668, 128, 128, 3) (167, 128, 128, 3) (668,) (167,)
2021-06-08 10:54:12.763395: I tensorflow/core/platform/cpu_feature_guard.cc:142] This TensorFlow binary is optimized with oneAPI Deep Neural Network Library (oneDNN)
 to use the following CPU instructions in performance-critical operations:  AVX AVX2
To enable them in other operations, rebuild TensorFlow with the appropriate compiler flags.
Model: "sequential"
_________________________________________________________________
Layer (type)                 Output Shape              Param #
=================================================================
conv2d (Conv2D)              (None, 124, 124, 32)      2432
_________________________________________________________________
conv2d_1 (Conv2D)            (None, 120, 120, 32)      25632
_________________________________________________________________
max_pooling2d (MaxPooling2D) (None, 60, 60, 32)        0
_________________________________________________________________
dropout (Dropout)            (None, 60, 60, 32)        0
_________________________________________________________________
conv2d_2 (Conv2D)            (None, 58, 58, 64)        18496
_________________________________________________________________
conv2d_3 (Conv2D)            (None, 56, 56, 64)        36928
_________________________________________________________________
max_pooling2d_1 (MaxPooling2 (None, 28, 28, 64)        0
_________________________________________________________________
dropout_1 (Dropout)          (None, 28, 28, 64)        0
_________________________________________________________________
flatten (Flatten)            (None, 12800)             0
_________________________________________________________________
dense (Dense)                (None, 256)               3277056
_________________________________________________________________
dropout_3 (Dropout)          (None, 256)               0
_________________________________________________________________
dense_1 (Dense)              (None, 64)                16448
_________________________________________________________________
dropout_4 (Dropout)          (None, 64)                0
_________________________________________________________________
dense_2 (Dense)              (None, 3)                 195
=================================================================
Total params: 3,991,843
Trainable params: 3,991,843
Non-trainable params: 0
_________________________________________________________________
model summary None
2021-06-08 10:54:19.140912: I tensorflow/compiler/mlir/mlir_graph_optimization_pass.cc:176] None of the MLIR Optimization Passes are enabled (registered 2)
Epoch 1/20
84/84 [==============================] - 108s 1s/step - loss: 8.5431 - accuracy: 0.3848 - val_loss: 1.0847 - val_accuracy: 0.3772
…
